models/fully_connected_nn_emotion_model/cross_val.pt (torch, 352600 bytes, 8 tensors)

fc1.weight f4 [200, 27]
000000 29 1c 02 3e e6 6b d3 3d c6 8c f6 3d 28 a0 ab 3c
       0.12706055 0.10323314 0.12038569 0.020950392
000010 00 e5 f2 bb a0 c4 d7 bc 40 9f e2 bc 97 ec 33 3e
       -0.007412553 -0.026338875 -0.027663827 0.1757072
000020 16 3d 9a 3d b0 70 6a 3d fc 68 7e bd bb ae 0e 3e
       0.075311825 0.057236373 -0.06211184 0.13933842
000030 13 02 22 3e 3a 50 fb 3d ab 84 12 3e 23 77 27 3e
       0.15821104 0.122711614 0.14308421 0.16354041
000040 18 45 ae 3c 35 93 30 be 80 1d aa bb 2a dc da bd
       0.02127318 -0.17243655 -0.005191505 -0.10686524
000050 40 ad 56 bd e4 ce 0d be 13 c7 41 3e 2c 7f 03 be
       -0.052411318 -0.13848454 0.18923597 -0.12841481
000060 f0 a5 57 3d 41 61 b2 bd 33 63 95 bd de 6a e6 3d
       0.052648485 -0.08709956 -0.072943114 0.11250852
000070 f6 93 92 3d 4b 28 9d bd 00 0b 37 be 4c 55 0a 3d
       0.071571276 -0.07673701 -0.1787529 0.03377275
000080 5c 94 5d bd 20 16 b9 3b aa c6 eb 3d de 2f eb 3d
       -0.054096565 0.0056483895 0.115125015 0.11483739
000090 f3 c3 2c be b8 78 88 3c 16 89 d3 bd 50 32 f3 3c
       -0.16871624 0.016659126 -0.103288814 0.029687077
0000a0 29 37 36 3e ea cf ba 3d 64 62 1d be 78 02 cc 3c
       0.1779448 0.09121688 -0.15369564 0.024903521
0000b0 a0 99 5a 3d bf 66 03 3e 05 12 0b 3e 63 b3 2c 3e
       0.053369164 0.12832163 0.13581093 0.16865306
0000c0 81 c0 06 3e ee f9 29 be f3 5f 0e be e1 d8 2d be
       0.13159372 -0.16599247 -0.13903789 -0.16977264
0000d0 58 af a6 bd 4a 8c 35 be cd 8b 06 3e d4 ea 3d bd
       -0.08138913 -0.17729297 0.13139267 -0.046366528
0000e0 9d e7 b1 bd 48 23 28 be fe 9e 96 3d fb 25 2c 3e
       -0.08686755 -0.16419709 0.07354544 0.16811363
0000f0 a0 5f c3 3b be d4 85 3d 42 21 96 3d b1 88 17 3e
       0.005962327 0.06534718 0.07330562 0.14798237
000100 f0 b1 02 3c cd 97 44 3e 70 16 0e be 72 38 fe 3d
       0.007976994 0.19198532 -0.13875747 0.1241311
000110 08 63 d7 bd c6 ec 8f bd c4 19 59 3d 9d 4a 1f 3e
       -0.105169356 -0.07027583 0.053003088 0.15555806
000120 a1 ee 06 3e e5 cc 1a be e5 9d 16 3e 0b f8 b4 bd
       0.13176967 -0.15117224 0.1470867 -0.08836373
000130 09 05 b2 bd 88 47 11 3d ee 47 cd 3d 00 37 fc 3a
       -0.08692367 0.03546861 0.10023485 0.0019242465
000140 31 36 05 3e 30 71 4d 3d de 20 d9 3d 52 ad e3 3d
       0.13008954 0.050156772 0.10601972 0.111170426
000150 43 29 30 be 06 c7 24 be 48 53 56 bd 1d 89 11 3e
       -0.1720324 -0.16091546 -0.052325517 0.14212461
000160 d8 ea ee 3c 60 63 15 bd 0a ae 8c 3d 67 85 3b 3e
       0.029164717 -0.036471725 0.06869133 0.18312608
000170 08 e7 16 3d fa 9c 92 bd e0 30 66 bd 1a 5d a6 3d
       0.036841422 -0.07158847 -0.056198955 0.081232265
000180 ec b9 56 bd 85 25 06 3e a0 23 20 bd 04 c5 e9 bd
       -0.052423403 0.1310025 -0.039096475 -0.11414531
000190 2e 27 c1 3d b0 5c e7 bc 2f 51 9e bd a3 a4 07 be
       0.09431301 -0.028242439 -0.07730328 -0.13246398
0001a0 1e 2d ba 3d d9 c8 15 3e ab 99 2d be 7e 61 ff 3d
       0.09090637 0.14627399 -0.16953151 0.12469767
0001b0 2e 2b e2 3d 43 e6 33 be 80 d7 26 bb ae ab d3 bd
       0.11043392 -0.17568307 -0.0025458038 -0.1033548
0001c0 fe 29 8a bd 70 87 71 3c ef fd 12 be ff 38 42 be
       -0.067462906 0.0147417635 -0.1435468 -0.18967055
0001d0 e4 cc 74 bd 4e 70 80 3d 1d b0 44 3e e8 96 ad bc
       -0.05976571 0.062714204 0.19207807 -0.021190122
0001e0 74 86 34 3d ae 33 f9 3d cd 6d 10 3e b3 06 0d 3e
       0.044073537 0.1216806 0.14104386 0.13772087
0001f0 e0 10 72 bd 91 49 05 3e fc 56 1a be 80 0c 9d 3b
       -0.059098125 0.13016345 -0.15072244 0.00479275
000200 5c d9 52 3d 78 79 a8 bc 32 19 20 be 2d fc 15 be
       0.05147682 -0.020565733 -0.15634611 -0.14646979
000210 34 03 0d be e0 5c 97 3b a4 64 1c bd 85 a7 3f be
       -0.13770753 0.004619226 -0.038181916 -0.18716247
000220 8b 02 15 3e 52 0f 0f be d4 bd 33 bd d9 0b ba bd
       0.14551751 -0.13970688 -0.043882206 -0.09084291
000230 50 f1 56 bd 55 60 00 3e aa 96 8e 3d 40 de 07 3b
       -0.052476227 0.12536748 0.06962331 0.0020731837
000240 6c f2 a0 bd c0 de 20 3b a0 5c c1 bc f6 b5 99 3d
       -0.07858738 0.0024546832 -0.023603737 0.075054094
000250 42 c8 c2 3d d4 5a 4f bd 60 45 48 bd 79 6b 42 3e
       0.095108524 -0.05062373 -0.048894286 0.1898631
000260 07 98 3e be 34 02 6d bd a8 20 79 bd f0 68 44 be
       -0.18612681 -0.05786343 -0.06082216 -0.19180655
000270 93 d5 3f 3e 39 f6 10 be a1 f4 14 3e 18 4e 43 3d
       0.18733816 -0.14156426 0.14546444 0.047681898
000280 49 c1 25 be 33 d3 33 be b8 f2 e5 bc 28 3b 19 be
       -0.16187014 -0.17561035 -0.028069839 -0.14963973
000290 a0 03 9e bb a0 59 43 3d a4 40 75 3d 36 82 c9 3d
       -0.0048222095 0.047692895 0.0598761 0.09839289
0002a0 3c c0 54 3d 77 26 3b 3e a4 80 0c be d3 89 13 3e
       0.05194114 0.18276392 -0.13720948 0.14408045
0002b0 a0 bd 9c bb 4a be 9c bd 27 94 01 3e b8 44 22 be
       -0.0047833472 -0.07653482 0.12654172 -0.15846527
0002c0 de b6 93 3d 26 32 86 3d 7f 95 e8 bd 99 ea 0e 3e
       0.072126135 0.06552534 -0.11356639 0.1395668
0002d0 4d 82 ec bd 84 60 17 3d 70 cf 5e bc 20 cf ea bd
       -0.115482904 0.03695728 -0.013599262 -0.11465287
0002e0 19 99 31 3e 63 84 31 3e 92 66 e3 3d d0 e5 cc bd
       0.17343558 0.17335658 0.11103548 -0.10004771
0002f0 f2 c3 eb 3d 00 61 fd 3a 5d 5f 37 be b0 6d 0d bd
       0.11511983 0.0019331276 -0.17907472 -0.034528434
000300 ac ad 73 3d be bb f2 bd 76 19 e2 3d 46 b2 ce bd
       0.0594918 -0.11852215 0.110400125 -0.10092597
000310 a4 b0 3a 3d 04 6d 5c bd bf 3e 2d 3e 66 d1 f3 3d
       0.045578614 -0.053814903 0.16918467 0.11905174
000320 e6 b0 96 3d af d3 dc bd e4 8f 0c be 22 0c cc 3d
       0.073579594 -0.10782563 -0.13726765 0.09963252
000330 50 88 70 3c 99 99 92 bd a0 b1 86 3b 86 bc 19 be
       0.014680937 -0.07158203 0.00411053 -0.15013322
000340 15 13 f0 bd ad e9 2b 3e 28 5c 63 bd c0 b6 34 bb
       -0.117223896 0.16788359 -0.05550781 -0.0027574748
000350 a2 b6 a1 3d a9 21 43 3e fc 26 62 3d 20 30 54 3c
       0.078961626 0.19055809 0.05521296 0.012950927
000360 a4 a6 28 3d b6 ef fb 3d 58 bd df bc d5 89 fe bd
       0.041174546 0.123015806 -0.027311966 -0.12428633
000370 30 ce 69 3c 16 0b 9b 3d 9c 80 b7 bd 90 dd 2c 3d
       0.01427035 0.07570474 -0.08960077 0.042203486
000380 86 9a d7 3d 4a cb 31 be fe 41 a1 3d ec 01 df bd
       0.1052752 -0.17362705 0.07873915 -0.108890384
000390 c5 9c 0b 3e 6f e1 26 3e b8 70 b3 3c bb 95 d7 bd
       0.13634022 0.16296934 0.021904334 -0.10526606
0003a0 9a 23 e1 3d 80 1b ed 3a b8 24 45 bd e9 79 1f be
       0.109931186 0.0018089861 -0.04813072 -0.15573849
0003b0 72 60 80 3d a0 00 81 3b b8 05 db bc bb 36 31 3e
       0.062683955 0.003936842 -0.026736125 0.17306034
0003c0 21 78 16 3e c5 f8 37 be 81 6e 2d 3e 48 b7 52 bd
       0.14694263 -0.17965992 0.16936685 -0.051444322
0003d0 45 d8 aa bd 3a 9f e9 3d 7c dc 34 bd c5 2a 33 3e
       -0.083420314 0.11407323 -0.044155583 0.17496784
0003e0 5c a4 7d 3d 4a 02 d5 3d 11 3f 04 3e 24 63 7d 3d
       0.061924323 0.10400827 0.12914683 0.061862126
0003f0 80 d6 7d bc 70 e9 87 bd 51 4f 42 be 7d 44 05 be
       -0.015493035 -0.066363215 -0.1897557 -0.13014407

fc1.bias f4 [200]
000000 ac a0 24 3d c8 e0 60 3d a6 19 bf 3d 85 17 16 3e
       0.04019229 0.054901868 0.09331064 0.1465741
000010 60 20 6b bd e6 8a 21 be ea b4 9f 3d fd fb ea bd
       -0.057403922 -0.15775642 0.077981785 -0.11473844
000020 5a 7c e2 3d e8 fb 17 bd 76 51 e1 3d f0 20 30 bd
       0.110588744 -0.03710547 0.110018656 -0.04300016
000030 f0 96 54 bc bc 44 a0 bd 60 46 92 3b 7b dc 02 3e
       -0.012975439 -0.0782561 0.0044639558 0.12779419
000040 22 1d b3 3d 66 c4 ad 3d c0 0e 07 3b 44 0f 51 bd
       0.08745791 0.08484726 0.0020608157 -0.05103995
000050 09 fe b3 bd 41 31 41 3e ed ce 29 3e 5f e2 21 be
       -0.08788688 0.18866445 0.16582842 -0.1580901
000060 4b 9c 14 be 40 77 b7 3c b7 0c 23 3e aa db e1 3d
       -0.14512746 0.02239573 0.15922819 0.11028226
000070 56 e4 35 be 48 54 87 bc 26 99 85 bd 82 47 1e be
       -0.17762884 -0.01651968 -0.06523351 -0.15456966
000080 5a a9 fd 3d 08 d6 d7 bd f8 1c e7 bc 67 84 04 3e
       0.12385817 -0.1053887 -0.028212056 0.12941132
000090 22 10 f6 3d a4 fd 1e be c0 0d 2c bb b8 17 eb bc
       0.12014796 -0.15526444 -0.0026253313 -0.028697833
0000a0 a7 7a 23 3e 7b 70 2f 3e a8 8f 40 3d 32 d1 f2 3d
       0.15964757 0.17132752 0.047012 0.11856307
0000b0 9d a8 05 3e 58 d1 c4 3c ef 74 22 3e 70 db 18 3d
       0.13052602 0.024025604 0.15864919 0.037318647
0000c0 a5 9a 3b 3e d1 98 2e 3e e7 0b 18 be 55 da 09 be
       0.18320711 0.17050482 -0.1484829 -0.13462193
0000d0 11 ba aa bd f6 5f b5 3d 75 8b 19 be 00 c0 ca bb
       -0.083362706 0.08856194 -0.14994605 -0.006187439
0000e0 d1 a2 28 3e 20 82 a1 bb fd 2e 0d 3e b7 6e 38 be
       0.1646836 -0.004928842 0.13787456 -0.18010984
0000f0 11 e6 0a 3e 93 5c 23 3e cd a4 01 3e c2 cd a2 3d
       0.13564326 0.15953283 0.12660523 0.079494014
000100 41 c7 0c 3e 0f 8d f2 bd 26 94 cb 3d 47 ea 01 3e
       0.13747884 -0.11843311 0.099403664 0.12687026
000110 33 28 0c 3e 5a 7d 8f 3d a8 19 1b 3d 00 bc a4 ba
       0.1368721 0.07006331 0.037866265 -0.0012568235
000120 b0 8b 14 3d b9 38 f1 bd a8 86 8f bc 0d c2 d3 bd
       0.03626603 -0.11778397 -0.017520264 -0.103397466
000130 80 54 4f 3c c0 8b cd 3b 2e 8b f9 3d 31 7e 3c 3e
       0.012654424 0.006272763 0.121847495 0.18407513
000140 2e b7 f4 3d 00 57 20 bd bd 2f 38 3e e9 06 23 3e
       0.11949001 -0.03914547 0.1798696 0.15920605
000150 00 6f de 3a c0 b7 35 bd d9 c5 cf bd 97 cd 0d 3e
       0.0016970336 -0.04436469 -0.10145158 0.13847958
000160 2b ad 20 3e 48 10 52 3d e5 e3 17 3e 20 4e 66 bc
       0.15691058 0.05128506 0.14833029 -0.014056712
000170 76 82 82 3d 58 87 69 bd 5a 94 d4 bd 6c ff 16 3d
       0.0637254 -0.05701384 -0.10379858 0.036864683
000180 63 a2 3d 3e 3c 4b 00 be 00 c7 65 3d 64 72 29 be
       0.18518977 -0.125287 0.056097984 -0.16547543
000190 1f 80 38 3e c4 07 5d 3d 00 b1 c1 3a 23 1e 20 3e
       0.18017624 0.053962484 0.0014777482 0.15636496
0001a0 ab a4 3a 3e 66 7f 02 be 08 b7 c8 bd 7f 9a e4 bd
       0.18226878 -0.12743911 -0.098005354 -0.1116228
0001b0 82 26 86 3d c6 a8 e5 3d 70 7f 84 bd 91 7d 2e 3e
       0.065503135 0.112138316 -0.06469619 0.17040087
0001c0 04 e5 19 be f4 15 62 bd cb c5 1b 3e 8b 6f 3f be
       -0.15028769 -0.055196717 0.15212171 -0.18694894
0001d0 a2 b3 e2 3d 54 aa 78 bd 8f d7 3c 3e 80 e7 2f 3b
       0.110694185 -0.060709313 0.18441604 0.0026840866
0001e0 76 aa c1 3d 0b d4 00 3e f2 e9 8c 3d 43 80 25 be
       0.09456341 0.12580888 0.06880559 -0.16162209
0001f0 52 48 17 be 94 2f 5a 3d 23 9d 09 be ca 9b 22 be
       -0.14773682 0.05326803 -0.13438849 -0.15879741
000200 43 e8 33 3e 17 e9 1a 3e a2 67 40 be 56 47 f8 bd
       0.1756907 0.15127979 -0.18789533 -0.12122981
000210 45 a6 31 3e da 2d 92 3d 53 9c 34 3e 40 30 56 3d
       0.17348583 0.07137652 0.17637758 0.05229211
000220 7e 2b 16 be 8c 2e 27 3d 2a f0 1f be 45 6f cf bd
       -0.14665028 0.040815875 -0.15618959 -0.10128645
000230 5a 81 a4 3d 15 ec 0c be 77 66 44 3e 04 25 47 bd
       0.08032484 -0.13761933 0.19179712 -0.048619285
000240 c8 3b 9b bc b7 e9 92 bd bd e9 fd bd c4 87 78 3d
       -0.018949404 -0.07173484 -0.12398098 0.06067635
000250 40 ca 8e 3c 21 6b 08 be d0 d6 aa bd 40 69 df 3b
       0.017430425 -0.13322116 -0.083417535 0.0068179667
000260 2e 6d d8 bd 50 65 cd bc 6c 8b 1f 3d 33 9c 07 be
       -0.105676994 -0.025072724 0.038951322 -0.13243179
000270 f0 7e fb bd 4c 79 77 3d 00 d2 08 ba e4 42 83 bd
       -0.12280071 0.060418412 -0.0005219281 -0.06409243
000280 8c 94 c8 bd db 7c ac bd b1 5d 37 be 57 28 0c be
       -0.09793958 -0.08422252 -0.17906834 -0.13687263
000290 3f 55 24 3e c0 66 9e 3b a4 93 31 be 17 96 d7 bd
       0.16048144 0.004834026 -0.17341477 -0.10526674
0002a0 c4 2f 1b bd ba f2 3f be 80 34 b6 3c 04 bb 24 3d
       -0.03788735 -0.18744937 0.02224183 0.040217414
0002b0 c4 c5 9b bd b0 46 55 3c 76 c1 f7 3d 2a c9 0b be
       -0.0760608 0.0130173415 0.120974466 -0.13650957
0002c0 36 e8 db 3d 2f a6 98 bd 20 5a 15 bd 9c b1 c3 bd
       0.1073765 -0.07453572 -0.036462903 -0.09555361
0002d0 d0 cc 60 bc 78 b4 f3 3c 63 11 28 be 99 9f 3e 3e
       -0.013720706 0.02974914 -0.16412883 0.18615569
0002e0 7b 39 06 3e 07 93 d9 bd 86 10 ed 3d 95 f8 08 be
       0.13107865 -0.10623746 0.11575417 -0.13376077
0002f0 dc d4 e8 bd 00 91 aa 3b 9e 45 f9 3d a4 b3 0e be
       -0.11368725 0.0052052736 0.121714815 -0.13935715
000300 8a 8b 9c 3d f2 6e 8f 3d c5 d4 36 be a3 7d 2a be
       0.076438025 0.07003583 -0.17854603 -0.16649489
000310 f7 05 29 3e 37 ea 2f 3e 50 b4 f3 3c 8d 41 2a 3e
       0.16506182 0.1717919 0.029749066 0.16626568

fc2.weight f4 [200, 200]
000000 4a 6b dd bc b7 7c 83 3d e3 33 21 bd 5c 33 7e bd
       -0.027028698 0.06420272 -0.039356124 -0.0620607
000010 54 e5 32 3d cf e4 86 3d ef 59 45 bd ec ec 87 bd
       0.043675736 0.065866105 -0.04818147 -0.06636986
000020 80 48 3f bb 6b 00 35 bd a4 61 21 3d 96 df 32 bd
       -0.00291875 -0.04418985 0.039399758 -0.04367026
000030 24 d3 cd bc 6a b1 22 3d 7f 2f 86 bd f0 bb a4 3c
       -0.025125094 0.039719976 -0.06552028 0.020109147
000040 f8 d3 aa 3c e4 72 90 bc 79 29 86 3d da ea 0a bd
       0.020853028 -0.01763291 0.06550879 -0.03391538
000050 59 27 81 3d 91 05 65 bd ca d4 48 bd e8 cf 36 3d
       0.06306333 -0.05591351 -0.049031056 0.04463187
000060 48 75 ec 3c 3e 73 5e 3d 70 8b cb 3c a6 04 22 bd
       0.028864518 0.054309122 0.024846762 -0.039555214
000070 f4 14 e0 3c e4 9c 49 bd c6 81 27 3d fc 42 38 3d
       0.027353741 -0.04922189 0.040895246 0.044985756
000080 90 19 d1 bc 81 33 90 3d 68 c4 b4 3c d0 57 c8 3c
       -0.025524884 0.070410736 0.02206631 0.024455935
000090 84 c8 eb 3c 40 a6 44 bd c4 e5 60 bc 10 44 b0 bb
       0.028782137 -0.04801011 -0.013726655 -0.0053792074
0000a0 d8 fd 4e 3d 1a 2c 90 bd ee 0b 42 3d ac ab 90 bc
       0.050535053 -0.07039662 0.04737466 -0.017659985
0000b0 3e 3c 25 bd c0 96 08 bb c8 1d 68 3c 3c 25 8c 3c
       -0.040340655 -0.0020841807 0.014167257 0.017107598
0000c0 5a a7 5d bd 3c ff 2a 3d be d7 89 bd a8 67 7e 3c
       -0.054114677 0.041747317 -0.06730603 0.015527643
0000d0 90 73 52 bc 36 c3 30 3d a8 5a 7b bc 28 e6 0d 3c
       -0.012844935 0.043154918 -0.015341438 0.008660831
0000e0 d0 bb e3 bb 80 11 27 bb 22 30 f6 bc 3b ce 83 3d
       -0.006949879 -0.0025492609 -0.030052248 0.0643582
0000f0 34 19 6a bd d0 fc 97 3b d6 e3 57 3d 00 e7 6d ba
       -0.05715294 0.004638292 0.052707516 -0.0009075254
000100 46 9e 0b 3d bb 10 86 3d 58 c9 f0 3c 98 a0 68 3c
       0.03408649 0.0654616 0.029392883 0.014198445
000110 d0 62 06 bc 05 55 80 3d 64 57 f3 3c c4 c7 30 3d
       -0.00820227 0.06266216 0.029704757 0.04315926
000120 00 85 06 bb 66 03 90 bc 9a bf 52 3d 00 ad cc bc
       -0.0020526052 -0.017579746 0.051452257 -0.024984837
000130 c2 b2 d6 bc c0 79 f3 ba e5 75 4b bd c0 f9 b3 bb
       -0.026208285 -0.0018575713 -0.04967298 -0.005492419
000140 c0 2e 3d 3d b8 38 5b bd 96 c3 1c 3d 3e 56 e0 bc
       0.046187162 -0.053520888 0.038272463 -0.027384873
000150 ec aa 51 bd a0 f6 1e 3b 52 13 43 bd ad 2c 6a bd
       -0.051188394 0.0024255887 -0.047625847 -0.057171512
000160 a0 fc b9 3b 67 eb 85 3d 51 ca 52 bd dc 67 07 bc
       0.005675867 0.0653904 -0.051462475 -0.008264508
000170 13 36 82 3d 40 d9 01 3b 2d 23 83 3d 20 22 11 3b
       0.0635797 0.001981333 0.064031936 0.0022145584
000180 fa 21 7f 3d 00 19 ad ba c6 ce 0d 3d fe 76 7b 3d
       0.062288262 -0.0013206303 0.034621023 0.061392777
000190 fa 99 49 3d 5e 35 8d bc 2d c2 84 3d ee 8e 70 bd
       0.04921911 -0.017237362 0.064823486 -0.05873006
0001a0 ba 33 7f bd 88 d1 b4 bc 46 5b dd bc c0 a3 2b 3b
       -0.06230519 -0.022072569 -0.027021062 0.0026190132
0001b0 ea 90 78 3d bc c6 28 bc f0 24 9c bb b4 c0 40 3d
       0.060685076 -0.010301288 -0.0047651455 0.047058776
0001c0 86 93 27 bd 80 bb 9d 3a c0 ac f3 ba c4 07 8b bd
       -0.040912174 0.0012034029 -0.0018590912 -0.067885906
0001d0 d8 9f 96 3c e0 ef c1 3c 6c 97 26 3d 80 60 1a bd
       0.018386766 0.023673952 0.04067175 -0.037689686
0001e0 78 9c 15 bc 9e d8 ed bc 81 82 5a bd 4d e8 8d 3d
       -0.009131543 -0.029033955 -0.053347114 0.069290735
0001f0 18 46 8b 3c 20 f4 07 3c ce de 0b 3d 87 b3 62 bd
       0.017001197 0.00829795 0.03414803 -0.055346992
000200 40 f5 6f bb 06 dd 69 3d 18 17 92 bc 84 34 82 3c
       -0.0036614686 0.05709555 -0.017833278 0.015894182
000210 f8 20 4c bc f0 39 90 bb 0e a3 cf bc 0e 29 73 3d
       -0.012459032 -0.004401438 -0.025346305 0.059365325
000220 5e dd a2 bc 48 ff 1c bd 76 3c 90 bc b6 5e 2c bd
       -0.019880947 -0.038329393 -0.017606955 -0.04208251
000230 f0 6e 0c bd 90 ba 0e 3c 0a 39 20 3d 1e 3d 52 3d
       -0.034285486 0.008711472 0.039116897 0.051327817
000240 02 b1 f9 bc b5 b2 3e bd 70 ba 13 3d 79 75 54 bd
       -0.030479912 -0.046557147 0.036066473 -0.051869843
000250 c0 a9 4b 3c 0e b1 60 3d 74 45 58 3d c0 ae 80 3a
       0.012430608 0.054856353 0.05280061 0.0009817705
000260 08 a0 16 3c 2e cd 95 bc 80 cc f2 ba 00 b0 be 39
       0.009193428 -0.018286314 -0.001852408 0.00036370754
000270 ca 0c 2e bd 60 26 15 3c c6 de d3 bc d0 75 b2 bb
       -0.042492665 0.009103388 -0.025863063 -0.0054461733
000280 14 31 2a bd 04 64 3d 3d 2a c1 62 bd 80 13 70 3c
       -0.04155071 0.04623796 -0.055359997 0.014653087
000290 0b 93 8a 3d 00 df 8b b9 c6 53 5a bd f2 a6 4f bd
       0.067663275 -0.00026678294 -0.05330255 -0.05069632
0002a0 9c e9 ac bc 46 45 33 bd 74 b6 20 bd c0 dc 83 ba
       -0.021107487 -0.043767236 -0.0392365 -0.0010060295
0002b0 2e 6e e9 bc 00 52 4d bc fe d1 62 bd 10 7a 2f 3c
       -0.02849492 -0.012531757 -0.055376045 0.010710254
0002c0 23 23 75 bd e4 2b c8 bc e0 38 7b bd 38 ce 0a 3c
       -0.059847962 -0.024434991 -0.061333537 0.008472018
0002d0 52 33 49 3d e8 9b db bc 60 38 16 3d 9c 23 8e bc
       0.04912121 -0.02680774 0.036674857 -0.017350964
0002e0 b6 5c 25 3d 5e 73 64 3d 2c 2c d5 bc 06 12 b6 bc
       0.04037162 0.055774085 -0.02602204 -0.022225391
0002f0 b8 b0 53 3d 06 fd 2e 3d 80 4c 3d 3a a8 0b d4 3c
       0.051682204 0.04272177 0.0007221177 0.025884464
000300 56 63 75 3d 0d db 70 bd 3c 82 f5 bc 70 33 d3 3c
       0.059909187 -0.058802653 -0.029969327 0.025781363
000310 f3 c0 8b 3d d4 73 84 bd 0b 2f 4b bd 98 e3 dc 3c
       0.068239115 -0.06467405 -0.04960541 0.026963994
000320 28 43 8e bd 76 60 23 3d 50 f1 18 3d 1a 1a 8e bc
       -0.06946403 0.039886914 0.03733951 -0.01734643
000330 40 ce 13 bb 78 1b 79 3c 5c c0 16 3d 00 cd 62 3c
       -0.0022553355 0.015204303 0.036804542 0.013842821
000340 b4 14 4e 3d 9b 22 2c bd d5 59 49 bd f2 60 b3 bc
       0.050312713 -0.04202519 -0.049157936 -0.021896813
000350 d2 eb 7f 3d f2 7d 5e 3d 16 33 1c 3d f8 51 0f 3c
       0.062480755 0.05431933 0.038134657 0.00874757
000360 1c 3b b0 bc ef 4c 78 bd 72 48 8d bc bc 44 57 bd
       -0.02151256 -0.060620245 -0.017246459 -0.052555785
000370 7b b9 51 bd 50 b0 4a 3d b4 6a 6b bd b8 1f 52 3d
       -0.05120228 0.04948455 -0.057474807 0.05129978
000380 8a 7a ff bc f0 51 01 3c b0 6d b7 bb a9 dd 85 3d
       -0.03118636 0.007893071 -0.0055977926 0.06536419
000390 85 28 4a bd 38 7b 5c bd 9d 2f 7c bd f8 b6 3e 3c
       -0.04935505 -0.053828448 -0.061568845 0.011640303
0003a0 4c d7 1b 3d f4 38 36 3d 10 49 91 3b 50 36 51 3d
       0.03804712 0.04448791 0.0044337586 0.051077187
0003b0 58 08 9f bc 2e 19 70 bd 10 77 34 bd e1 9a 83 3d
       -0.019413158 -0.058617763 -0.04405886 0.06426025
0003c0 78 ef eb 3c e2 43 1a 3d ce 43 6e 3d 00 d1 14 ba
       0.028800711 0.037662394 0.058170132 -0.00056768954
0003d0 b0 dc 18 bd 92 ac 21 bd 8c f0 0c 3d 00 eb fe 39
       -0.03731984 -0.039471216 0.03440909 0.00048621744
0003e0 88 be 35 bd e8 08 86 bd d0 f4 f8 bc dd ea 04 bd
       -0.044371158 -0.065446675 -0.030390173 -0.032450546
0003f0 ae 2d c2 bc 88 b3 39 bc b3 a1 16 bd 40 a3 fb 3c
       -0.023703422 -0.0113343075 -0.036775302 0.030717492

fc2.bias f4 [200]
000000 10 22 ce 3c 5a ea 42 bd 03 c1 8b 3d 28 c7 c0 3c
       0.025162727 -0.047586776 0.068239234 0.023532465
000010 12 1e 60 bd 0d 42 87 3d fa 85 79 3d 68 90 64 3c
       -0.054716177 0.06604395 0.060918786 0.013950445
000020 c0 eb 6a 3b 00 fd 25 bd 1c 59 5a bc d4 93 61 bc
       0.0035846084 -0.040524483 -0.013326909 -0.013768155
000030 fc ae 24 bc a6 f0 94 bc a4 c0 ce 3c b0 74 86 3b
       -0.010051485 -0.018181156 0.025238343 0.0041032657
000040 83 fe 1a bd bc 1d b1 3c aa f2 71 3d f0 ba b6 bc
       -0.037840378 0.021620624 0.059069313 -0.022305936
000050 60 03 a6 3b b0 5c 9c bb c6 ec 0e bd f1 29 8d 3d
       0.0050663203 -0.0047717914 -0.034893773 0.06892765
000060 1e a1 8f bd e1 7c 80 3d bf 81 8f bd ad 64 8f 3d
       -0.070131525 0.06273819 -0.07007169 0.07001624
000070 f4 14 63 bc 5a 43 6c 3d 4c b0 19 3d 83 9b 63 bd
       -0.013859976 0.05768142 0.037521645 -0.05556823
000080 75 c8 61 bd 49 27 82 bd 86 4a c6 bc e0 ed 3a bc
       -0.05512281 -0.06355149 -0.024205457 -0.011409253
000090 44 62 3b 3d ac 12 2a 3d 0c ad e0 3c 05 0c 80 3d
       0.04574801 0.041521713 0.027426265 0.062522925
0000a0 d4 5f 38 3d 48 67 15 3c ab c7 90 3d 18 09 ac 3c
       0.045013264 0.009118862 0.07069334 0.02100043
0000b0 c0 36 29 3c a0 34 7a bd 56 18 33 bd 16 0d 3b 3d
       0.010327995 -0.061085343 -0.04372438 0.045666777
0000c0 4e 2c 11 3d 2b 87 48 bd 5c ff 65 bd 9c 58 1b 3d
       0.035442643 -0.04895703 -0.056151733 0.0379263
0000d0 d8 3b 3b bc 17 f3 80 bd 05 ea 8b 3d a5 dd 2b bd
       -0.011427842 -0.06296366 0.06831745 -0.041959424
0000e0 ca 5a 86 bd cf c3 6c bd 80 54 0c 3b 32 be 0c 3d
       -0.065602854 -0.057803925 0.002141267 0.034361072
0000f0 f7 5a 3e bd 2c 20 3b bd 00 a6 fd ba c8 14 19 3c
       -0.04647347 -0.04568498 -0.001935184 0.009343334
000100 78 be 6b bd 42 da c1 bc 40 83 6c 3c 2c c3 d9 3c
       -0.057554692 -0.023663644 0.014435589 0.026582323
000110 a9 87 85 bd 73 6e 0e bd 06 48 35 3d f8 5b 42 3d
       -0.06520016 -0.0347733 0.04425814 0.04745099
000120 03 58 86 3d 94 32 da 3c 70 8d cf 3c ff 89 84 3d
       0.06559756 0.026635446 0.025335997 0.06471633
000130 5e 2e 77 3d 06 03 34 bd 54 ba e8 3c 8c 05 04 3d
       0.060346954 -0.043948196 0.02840916 0.032231852
000140 90 a5 0a 3d 70 92 42 3d 06 a8 4f bd 2e ab 53 3d
       0.0338493 0.047502935 -0.05069735 0.05167692
000150 ac 3e ec bc 60 b0 e6 bb 0a d6 3a 3d a3 83 8b bd
       -0.028838478 -0.0070400685 0.04561428 -0.06812217
000160 bc f0 0d bd a4 f6 0e bc 1e 2e 43 3d f0 3f 3f bc
       -0.03465341 -0.008725796 0.047651403 -0.011672959
000170 8c f1 9d 3c ca 39 84 bd 48 9c 09 3d f8 21 de bc
       0.019280218 -0.06456335 0.033596307 -0.027115807
000180 6e 93 6e 3d 6d f6 88 3d 01 60 8e 3d 32 95 5c 3d
       0.05824607 0.06687627 0.06951905 0.05385322
000190 00 34 71 b9 b4 77 22 bd 02 38 6a bd e6 6e 31 bd
       -0.00023002923 -0.03966494 -0.05718232 -0.04331865
0001a0 cc 36 88 bd f0 76 72 bc a4 e3 7c bd 69 6c 62 bd
       -0.06651077 -0.014798865 -0.061740533 -0.05527917
0001b0 e4 12 43 3d c0 57 8f bc 6c ca 09 bd f4 52 ff bc
       0.047625437 -0.017497897 -0.03364031 -0.031167485
0001c0 ed 2c 84 3d 06 7a 6d 3d 52 3a 0c bd b4 80 1f bc
       0.064538814 0.0579777 -0.034235306 -0.009735275
0001d0 be aa 41 3d d3 ad 83 3d 28 bf ee 3c 8c 74 e7 bc
       0.047281973 0.06429639 0.029143885 -0.028253816
0001e0 de 5e 73 3d f0 b1 86 3c 7a f9 b4 bc d4 2b 3d 3d
       0.059416644 0.01644227 -0.022091616 0.046184376
0001f0 90 69 f2 bb 6e ec 17 bd 6a 85 fb bc 88 86 d9 3c
       -0.007397838 -0.03709071 -0.030703265 0.026553407
000200 ba e5 f5 bc 53 96 8f bd d0 cc 2c 3d a0 49 52 bc
       -0.030016769 -0.07011094 0.042187512 -0.012834936
000210 66 16 38 bd 7c e5 f5 3c ec db 74 bc 36 0b 6c bd
       -0.044943236 0.030016653 -0.014945012 -0.05762788
000220 68 6e 73 3c 54 1d cb 3c de c4 05 3d 2c 50 32 bc
       0.014857866 0.024794258 0.03265845 -0.010883372
000230 4c fb d2 3c a4 3e 08 bc 06 27 16 3d 8d ac 8f 3d
       0.025754593 -0.008315716 0.03665831 0.07015333
000240 1a ac 60 bd 6b f6 6d bd b6 98 56 3d 84 ae 85 bd
       -0.05485163 -0.05809633 0.05239173 -0.06527427
000250 10 77 02 3d a2 5a 7c 3d ec e2 d1 bc 90 c7 a3 3c
       0.031851828 0.06160987 -0.0256209 0.01999262
000260 58 46 67 3c 1a 4d 22 3d fe 0c 9f bc db 24 83 3d
       0.014115892 0.03962431 -0.019415375 0.06403514
000270 94 1f 8d 3c ce 3c 58 bd a2 6f 6b 3d 42 9f 91 bc
       0.017226972 -0.052792363 0.05747951 -0.017776135
000280 80 cb 70 ba 19 50 8c 3d c0 65 d0 ba a0 4a 23 3b
       -0.00091855973 0.06851215 -0.0015899464 0.0024916306
000290 e9 70 8d 3d 34 77 cd bc 30 4a 3f 3d 40 60 f2 bc
       0.069063015 -0.025081255 0.04670161 -0.029586911
0002a0 84 34 1f 3d d6 b4 3a 3d a8 6c 69 3c 13 de 80 bd
       0.038868442 0.045582615 0.014247097 -0.06292357
0002b0 ec 2d bb bc b0 74 c2 3b 9e 69 5e 3d 38 57 1d bd
       -0.022849046 0.0059343204 0.054299943 -0.038413256
0002c0 24 0e 07 3d 9e c4 5e bd d0 27 a5 3b bc 57 51 3d
       0.03297247 -0.054386728 0.0050401464 0.05110906
0002d0 a8 77 d1 3c e0 18 f4 3b 88 e4 07 3d 1e 1b e1 bc
       0.025569752 0.0074492544 0.03317693 -0.02747875
0002e0 ed 49 67 bd 24 5e 41 3d 1e 3f 6f 3d 7f b2 87 3d
       -0.056466985 0.04720892 0.058409803 0.06625842
0002f0 c4 2e 90 bc 14 70 dd 3c d2 0b 75 3d 80 37 3b bb
       -0.017600425 0.027030982 0.059825726 -0.0028567016
000300 3e a9 81 bd 00 68 9b bc a8 c6 0f 3d 8f 82 85 bd
       -0.063311085 -0.01897049 0.035101563 -0.06519043
000310 40 83 b1 3c 49 89 8e bd 49 a3 8b 3d 2a 4f 5b 3d
       0.02166903 -0.06959779 0.068182535 0.053542294

fc3.weight f4 [200, 200]
000000 f6 27 0a 3d d0 4e 3b 3d 4a 8b 2f 3d 98 00 61 bd
       0.033729516 0.04572946 0.042857446 -0.054932207
000010 b4 90 bc 3c c2 cf 1d 3d a7 65 8c bd 4f e0 68 bd
       0.023018219 0.03852821 -0.06855326 -0.056854542
000020 c0 5b e0 bb 7c e8 45 bc c1 80 7a bd f8 05 11 3c
       -0.006846875 -0.012079354 -0.061157946 0.008851521
000030 a8 ca 72 3c 00 d5 e7 ba dc d6 4b bc c2 f1 8a bd
       0.014818825 -0.001768738 -0.012441363 -0.06784393
000040 ae ba 0b 3d 5e 6f 9a bc 5d e9 57 bd 70 45 06 bc
       0.03411358 -0.018851932 -0.052712787 -0.008195266
000050 60 e9 2e 3c 59 a6 2d bd 17 89 88 bd 02 2d 04 3d
       0.010675758 -0.04239497 -0.06666773 0.032269485
000060 11 ca 6b bd d0 5a f3 3c 6c 11 5f bd 6e cd 31 3d
       -0.057565752 0.029706389 -0.054459974 0.043408804
000070 da f9 29 3d 52 b8 11 bd 74 4c 70 bd 48 18 23 3d
       0.041498043 -0.035576172 -0.05866666 0.03981808
000080 46 3b 49 3d 8e a2 3d 3d ae bd 06 bd 0e a9 7f 3d
       0.049128793 0.046297602 -0.032895736 0.062417082
000090 10 a3 e2 bb 40 1a 5a 3c 60 75 35 3b 10 e5 62 3c
       -0.006916411 0.013311923 0.002768837 0.013848558
0000a0 68 e8 1c 3d 34 b2 d5 bc 00 7e f3 3b ea a7 65 3d
       0.038307577 -0.02608595 0.007430792 0.05606834
0000b0 b4 e5 56 bd a1 76 90 bd 6e 2a 4e 3d c6 b4 6f 3d
       -0.052465156 -0.07053877 0.050333433 0.05852201
0000c0 20 61 90 3b e8 85 9f 3c 14 92 04 3d 14 54 36 3d
       0.0044061095 0.019473031 0.032365873 0.044513777
0000d0 aa 11 06 3d 20 ab 6c 3c c4 de f4 bc c4 fb d1 3c
       0.03273169 0.014445096 -0.02989138 0.025632747
0000e0 f6 1d 4f 3d a0 58 0b 3d 52 82 21 bd 50 ea 1c 3c
       0.050565682 0.034020066 -0.039430924 0.009577349
0000f0 f4 eb 2a bd 76 65 50 3d 83 08 0f bd 25 b6 90 bd
       -0.04172893 0.05087801 -0.034920227 -0.07065991
000100 82 46 d0 bc 14 e0 27 3d fc a8 3e 3d b9 fa 89 bd
       -0.025424246 0.040985182 0.046547875 -0.06737275
000110 6e 22 10 3d 20 bd 2e bb dc 20 20 3d 43 74 81 3d
       0.035189085 -0.002666302 0.039093837 0.06321003
000120 ec d0 9b 3c 3c 39 03 3d fa 29 36 3d a7 24 82 3d
       0.01902052 0.032037005 0.044473626 0.06354647
000130 3c d4 43 3d ea d4 9f bc 7c 04 6b bd 84 43 6b bd
       0.047809824 -0.019510705 -0.057377324 -0.057437435
000140 ac c6 3e bd 35 ae 90 3d 20 f6 26 bc 70 16 75 bd
       -0.046576187 0.07064477 -0.010190517 -0.05983585
000150 ff f4 8c bd 03 eb 8a bd 00 d3 7f 3b f2 62 b3 bc
       -0.06882667 -0.06783106 0.0039035678 -0.021897767
000160 90 89 35 bd d6 b4 77 3d 7e c7 06 3d ca 34 90 bd
       -0.044320643 0.060475193 0.032905094 -0.07041319
000170 6c b5 48 bc e5 2a 87 bd 54 2c fe 3c e0 2e 74 bb
       -0.012250286 -0.06599978 0.031026997 -0.0037259385
000180 d4 03 86 3c e1 f5 23 bd 00 c7 25 3c 6f c1 32 bd
       0.016359247 -0.04002941 0.010118246 -0.043641504
000190 ff 11 19 bd da cd 7b 3d 60 34 06 3b 01 0c 8f bd
       -0.037370678 0.061475612 0.0020477995 -0.069847114
0001a0 7d 6a 7a bd 64 a2 2f 3d e0 0a da 3c 48 80 18 3c
       -0.06113671 0.042879477 0.026616514 0.009307928
0001b0 00 fc 2b 3b 96 fc 32 bd e0 5a 00 3d 7a b6 d9 bc
       0.0026242733 -0.043697916 0.031336665 -0.02657627
0001c0 cc f8 3f bd 14 1f 23 bd a9 57 66 bd 50 5c ef bb
       -0.04686813 -0.03982456 -0.056235943 -0.0073047057
0001d0 de 0b 26 3d 60 9b b6 bb 1d fa 63 bd 58 89 4f 3c
       0.04053866 -0.0055727214 -0.05565845 0.012667023
0001e0 aa 17 2b 3d c0 ed fa 3c 60 51 e2 3b 80 c2 db bb
       0.041770615 0.030630946 0.0069066733 -0.006706536
0001f0 12 c1 56 3d 93 ef 89 3d 31 96 35 bd 06 8b 5b bd
       0.05243022 0.06735148 -0.044332687 -0.05359938
000200 97 e3 23 bd 46 63 71 bd 6a 84 5b 3d 6b fc 2f bd
       -0.04001197 -0.058932565 0.053593077 -0.042965334
000210 67 48 74 bd 2b c6 90 3d 30 56 1d 3c 3c 41 35 bc
       -0.05963936 0.070690475 0.009603068 -0.011062916
000220 d0 34 d5 bc 74 4a fd 3c d8 81 89 bc 08 75 6e 3c
       -0.02602616 0.030919291 -0.016785547 0.01455427
000230 aa b3 45 3d 90 5a 90 bd 8e 3f fe bc a5 3f 27 bd
       0.048267044 -0.070485234 -0.031036165 -0.04083218
000240 c6 b3 6e bd ca 54 47 3d 4d 9c 6a bd c2 8c 75 3d
       -0.058276914 0.048664846 -0.057277966 0.05994869
000250 d0 1f 3f bd 0c 26 73 bc 60 ba 0e 3b d0 ce 81 bb
       -0.0466612 -0.014840614 0.0021778569 -0.0039614215
000260 c0 57 eb ba 90 59 b1 3c 4d 69 8a bd f1 51 83 3d
       -0.0017955229 0.021649152 -0.06758366 0.064121135
000270 0c fb cd 3c 90 ff d9 3c 22 b9 34 3d a0 96 04 3c
       0.025144123 0.02661112 0.04412187 0.008092552
000280 26 51 69 3d c4 e6 53 3d 20 85 39 3b d0 25 ee 3c
       0.056962155 0.051733747 0.0028308108 0.029070765
000290 f8 f4 50 bd bb 7e 19 bd 70 05 8a 3c 38 08 03 3d
       -0.05101487 -0.037474375 0.016848296 0.03199026
0002a0 78 f8 e0 bc 00 9a 3b bb f6 78 44 3d 4e 9e 22 bd
       -0.02746223 -0.0028625727 0.04796692 -0.039701752
0002b0 30 c7 ec 3b 80 2a b9 3c f0 38 ea bb a8 91 60 3c
       0.0072258934 0.022603273 -0.0071479008 0.013706602
0002c0 04 b1 3f bd ce 1a 80 bc 84 87 3d bc e4 b2 6a bd
       -0.046799675 -0.015637781 -0.011567954 -0.05729951
0002d0 fc dc 45 bd 91 c4 5a bd 7a 30 35 3d 44 62 28 bd
       -0.04830645 -0.053410117 0.044235684 -0.04110934
0002e0 58 25 d4 3c 0e 48 64 3d 36 c0 44 bd 7f 80 8e 3d
       0.025896713 0.05573278 -0.04803487 0.069581024
0002f0 b6 e8 32 bd 22 7d 02 bd a8 aa 44 3c 88 5b 7b 3c
       -0.04367896 -0.031857617 0.012003578 0.015341647
000300 dc 6e 68 bd ff b3 89 3d 0c b4 d1 3c 38 0b 1c 3c
       -0.05674635 0.06723785 0.025598548 0.009524159
000310 e0 12 10 3c 3c 70 51 bc 6d 0a 8e bd 98 f8 32 3d
       0.008793563 -0.012783106 -0.06935582 0.04369411
000320 68 7b 1c 3d f0 1f a8 3c 74 04 76 bc e4 f6 23 bc
       0.038203627 0.020523041 -0.01501571 -0.010007594
000330 7c be a9 3c e0 bb b7 3c 5b f8 8f 3d f2 6c 66 3d
       0.020720713 0.022428453 0.07029792 0.056256242
000340 b0 68 f6 3b 60 39 70 3b a0 23 0d bb 84 19 99 bc
       0.007519804 0.0036655292 -0.0021536127 -0.018688925
000350 40 bc 84 3a d0 d7 a8 3b 26 a8 12 3d e0 2a 06 bd
       0.0010126904 0.00515268 0.03580489 -0.032755733
000360 ec f5 1b 3d 2a d2 b0 bc 22 0e 50 bd 9b 13 6d bd
       0.038076326 -0.021584589 -0.050794728 -0.057880025
000370 36 38 3e bd 3d 51 77 bd 82 3f 39 3d 66 6b 5a 3d
       -0.046440326 -0.06038021 0.04522658 0.05332508
000380 b7 d0 5e bd ea 8a 03 3d 28 17 05 3d 82 80 88 bc
       -0.054398265 0.0321149 0.032492787 -0.01666284
000390 46 f4 28 bd 21 e8 29 bd 00 66 8e ba 52 95 53 3d
       -0.041248582 -0.04148114 -0.0010864139 0.051656075
0003a0 fc f3 34 bd 7b 74 62 bd 06 1c 20 3d 08 e8 35 3c
       -0.044177994 -0.055286866 0.039089225 0.011102684
0003b0 3c f7 f2 bc 80 1c 35 bd 78 c1 50 3c 58 89 d9 3c
       -0.029658906 -0.044216633 0.012741439 0.026554748
0003c0 80 22 9a 3a bb 23 53 bd 40 dc c7 bc b4 d1 38 bd
       0.0011759549 -0.051547747 -0.024397016 -0.045121863
0003d0 77 f2 65 bd 76 77 b2 bc 42 db 0f 3d 63 c8 21 bd
       -0.056139436 -0.021785479 0.03512121 -0.039497744
0003e0 26 f7 5f bd 90 90 82 3b 88 a4 6a bd 6c 1d 53 bd
       -0.05467906 0.0039845183 -0.057285815 -0.05154173
0003f0 f0 27 e7 3b 9a 51 70 3d 44 0e f4 3c d9 e4 18 bd
       0.0070543215 0.05867157 0.029791959 -0.03732762

fc3.bias f4 [200]
000000 ca 0b 63 3d b4 73 7a bc 4f 10 82 bd 50 9a 56 bc
       0.055431165 -0.015286375 -0.06350767 -0.013098314
000010 36 a5 47 3d a4 78 c8 3c 52 6c 93 bc 9a fa f5 bc
       0.04874154 0.024471588 -0.017995987 -0.030026723
000020 34 f1 8e 3c d0 7c 32 bc ca 27 34 3d ec 04 f4 3c
       0.017448999 -0.010894015 0.04398326 0.029787503
000030 92 bd 7b 3d d8 ef 4a bd 4a 6c 75 3d 36 93 71 3d
       0.061460085 -0.04954514 0.059917726 0.058978282
000040 c4 35 46 bc f6 0c 76 3d ec 99 2b 3d 2c 0e f4 3c
       -0.01209778 0.060070954 0.04189484 0.029791914
000050 7c ff f8 bc 00 8d 68 3b 97 4f 80 bd d6 4d d8 bc
       -0.030395262 0.0035484433 -0.062651806 -0.026404303
000060 f1 b1 88 3d a4 11 f0 bc 92 6b 79 3d e6 3f 53 bd
       0.06674565 -0.029305287 0.060893603 -0.05157461
000070 b8 df f3 bc 9e 39 39 3d d2 57 5f 3d f0 c9 24 bd
       -0.029769763 0.045220964 0.05452711 -0.040231645
000080 c6 87 ab bc 90 c3 09 3d 56 5f 6c bd e0 2d 82 3b
       -0.020938765 0.03363377 -0.057708107 0.003972754
000090 1c c8 8f 3c 50 d1 e7 3b bd 00 7f bd 00 b4 cb 3b
       0.017551474 0.0070745125 -0.062256563 0.006216526
0000a0 a2 b6 54 bd 78 a8 31 bc 4a 23 4a bd ec 6f c3 3c
       -0.051931985 -0.010843389 -0.04935006 0.02385708
0000b0 e1 55 8d bd 60 2e 5e bb fc e9 e8 bc f4 7f b1 3c
       -0.06901146 -0.0033902153 -0.028431885 0.021667458
0000c0 f4 cc dc bc 5c 1a 99 3c 4e 2b 7e 3d 94 7e 55 3d
       -0.026953198 0.018689327 0.062053017 0.052122667
0000d0 aa 65 87 bd 81 18 3f bd f0 12 87 3b ac a8 23 3d
       -0.06611188 -0.046654228 0.0041221306 0.03995578
0000e0 6c 3b d4 3c 66 53 75 bd 96 3d f2 bc 68 a7 be 3c
       0.02590724 -0.059893988 -0.029570382 0.023273185
0000f0 7d 51 82 3d c8 51 21 3c 70 45 ae 3b 50 0d 80 3b
       0.06363199 0.009846158 0.005318336 0.003907837
000100 38 b9 af 3c f2 f5 14 3d fe b1 6b bd 0c b9 eb bc
       0.021450624 0.036367364 -0.057542793 -0.02877476
000110 c9 6f 19 bd f0 95 1f bd 78 bf df 3c 80 76 d8 3b
       -0.037460122 -0.03896135 0.02731298 0.006605923
000120 39 59 85 3d fc 46 88 bd 2e c1 f0 bc c6 06 56 3d
       0.065111585 -0.06654164 -0.02938899 0.052252553
000130 c0 be 37 3d f6 49 90 bd 1b b9 74 bd 00 5b 85 3c
       0.044859648 -0.07045357 -0.059746843 0.016278744
000140 ea d1 20 bd 0e fe 3b bd f3 8a 6c bd 4c cf 1a bd
       -0.03926269 -0.045896582 -0.0577497 -0.03779535
000150 76 20 52 3d 78 19 7e 3c f6 c4 54 bd 02 d1 7e 3d
       0.05130049 0.015509002 -0.05194565 0.062211044
000160 d3 65 4c bd c0 46 ee 3c dd 33 0e bd 0a de 19 bd
       -0.049901795 0.02908647 -0.03471743 -0.03756527
000170 80 a3 6c ba d0 0b 88 3b 05 50 81 3d 92 8a 77 bd
       -0.0009027049 0.004151799 0.06314091 -0.060434885
000180 ac be 0e bc 5c 96 01 3d 7c 9e 21 bc ef 21 01 bd
       -0.008712452 0.031637534 -0.009864446 -0.031526502
000190 0d 34 0d bd 80 a3 3e 3a 77 46 90 3d a8 5f 05 3c
       -0.034473468 0.0007272288 0.0704469 0.008140482
0001a0 49 03 1d bd a2 46 12 3d 68 f0 2c 3d 6e 82 68 3d
       -0.03833321 0.035711892 0.042221457 0.056765012
0001b0 18 4f 3f 3c 80 a2 00 3b 00 e5 cb 3b 14 42 e3 3c
       0.011676572 0.0019628108 0.0062223673 0.02774147
0001c0 bc 9d e7 3c b1 24 81 bd 99 f1 12 bd 3c 08 11 bc
       0.028273456 -0.063058265 -0.035874937 -0.008852061
0001d0 c4 67 8a bd 13 2c 80 3d 83 39 45 bd 38 75 4f bd
       -0.06758073 0.062584065 -0.04815055 -0.050648898
0001e0 ca d9 ae bc 9c da 05 bd 50 89 13 3d d6 70 51 3d
       -0.021344084 -0.032679185 0.036019623 0.051133
0001f0 65 c2 82 3d 07 8d 84 bd c0 5b e1 3a c0 bc 8d ba
       0.06384734 -0.06472211 0.0017193481 -0.0010813698
000200 22 2e 4b 3d 45 9c 3a bd 4c a2 8e bd b7 6f 41 bd
       0.049604543 -0.045559186 -0.069645494 -0.04722568
000210 14 ed 00 bd f1 73 8d 3d 70 b4 35 bd 5c 2d 58 3d
       -0.031476095 0.0690688 -0.04436153 0.052777633
000220 19 7b 05 bd 6d d4 0a bd 36 d3 0c 3d d2 84 4f 3d
       -0.0325881 -0.03389399 0.034381114 0.050663777
000230 38 4b 3a 3c 64 82 4d 3d c4 bb 86 bc 3c df 6a bc
       0.011370473 0.05017318 -0.016446956 -0.01433545
000240 dc fa 7f bd 74 93 5d 3d 2c bf a0 3c dd bf 81 3d
       -0.062495098 0.0540957 0.019622408 0.06335423
000250 b4 9e 43 bd ac eb 84 bd 48 3e 10 3d 68 7d e4 3c
       -0.047758773 -0.06490263 0.035215646 0.02789183
000260 9c 17 21 bd 5f b9 87 3d ce ef 15 3d a5 b4 66 bd
       -0.039329156 0.066271536 0.03660565 -0.05632462
000270 90 d2 f6 bb 86 c9 6e bd 80 62 1f ba bf 4d 85 3d
       -0.007532425 -0.058297656 -0.00060800463 0.065089695
000280 48 f8 ae 3c a0 b7 db 3c 3e a0 3c 3d 80 80 35 3d
       0.021358624 0.026820958 0.046051256 0.044312
000290 3f c3 1e bd ca 3d 87 bc 22 45 54 bd 28 40 3b bc
       -0.03876042 -0.016508956 -0.051823743 -0.01142887
0002a0 66 75 5f bd 4a b2 00 bd 78 46 73 bc 17 25 8a bd
       -0.05455532 -0.03142003 -0.014848344 -0.067453556
0002b0 06 3f 7f 3d 23 ba 84 3d 65 36 63 bd e3 85 3d bd
       0.062315963 0.06480815 -0.055471797 -0.046270262
0002c0 a6 ed 18 3d 92 a0 12 3d aa c8 66 bd d0 12 31 bc
       0.037336014 0.035797663 -0.056343712 -0.010807708
0002d0 85 7b 32 bd 42 fe 20 3d 28 c4 49 bd 3c 7f b7 3c
       -0.04357483 0.03930498 -0.049259335 0.022399537
0002e0 4a 1c 72 3d 88 58 58 bd c6 49 5f 3d 28 d3 b9 3c
       0.05910901 -0.052818805 0.054513715 0.022683695
0002f0 0d c5 8b 3d c6 dd 83 bd a8 43 4e 3c 60 a3 9a 3b
       0.06824694 -0.06438784 0.012589373 0.004719183
000300 d2 4a e4 bc e4 86 0c 3d 34 c2 3b bd 02 50 30 bd
       -0.027867708 0.03430833 -0.045839503 -0.04304505
000310 5a 11 42 3d b8 9a c2 3c 92 52 42 3d 9a b3 40 3d
       0.04737983 0.023755416 0.047442026 0.04704628

fc4.weight f4 [7, 200]
000000 a4 7e 82 bd 58 ba 35 3d 36 79 80 bd 84 52 8d bd
       -0.06371811 0.044367164 -0.06273119 -0.06900504
000010 c0 cf de bb 08 2e 20 3c a0 93 76 3b 02 ef 3a bd
       -0.006799668 0.0097766 0.0037624612 -0.04563809
000020 00 95 43 3a f4 0c a4 3c 81 0c 1c bd f0 e7 4a 3d
       0.00074608624 0.020025708 -0.038097862 0.0495376
000030 ae 1b b9 bc 8c e7 ae 3c 22 97 58 bd 7c 7d 71 bd
       -0.022596207 0.021350645 -0.052878506 -0.05895756
000040 51 da 81 bd 84 ec 2c 3d 20 d1 17 3d a4 ac 7c bc
       -0.06340469 0.042217746 0.03706467 -0.01542202
000050 57 dc 8a 3d f0 f6 92 bb 02 e4 67 3d 88 37 01 bc
       0.06780308 -0.0044850037 0.05661393 -0.007886775
000060 ee b1 6c 3d d0 55 85 3c 40 d3 34 bc 18 2c 28 bd
       0.057786874 0.01627627 -0.011036694 -0.041057676
000070 5e 54 83 bc 1a c4 01 3d 3c 36 d2 3c 00 2f 20 bc
       -0.01603144 0.031681158 0.025660627 -0.009776831
000080 b4 84 14 bc 24 77 2b bc 80 bf 8c ba 58 66 eb 3c
       -0.009064842 -0.010465417 -0.0010738224 0.028735325
000090 cb 1e 8f bd 06 2f 0c 3d da 6b 09 3d c8 1f a3 3c
       -0.06988295 0.034224533 0.03355012 0.019912615
0000a0 c0 93 a1 ba 44 3f 9f 3c d4 c4 3b 3d 8a 33 40 3d
       -0.0012327358 0.019439347 0.045842007 0.04692415
0000b0 5c d6 5c 3d c2 5b 0c bd 2e f3 15 3d 50 cc 7c 3c
       0.053915367 -0.034267195 0.036608867 0.015429571
0000c0 1e d6 cb bc 30 62 87 bc 50 0f e7 bb e8 0d 84 3c
       -0.024882372 -0.016526312 -0.007051386 0.016119912
0000d0 c0 5a dd 3a 50 19 86 3c 02 ce 1e 3d d3 6f 88 3d
       0.0016888008 0.016369492 0.038770683 0.06661954
0000e0 92 4e 91 bc 37 b4 83 3d aa e8 f3 bc cc a2 63 bc
       -0.01773766 0.06430858 -0.029774029 -0.013893794
0000f0 ac 41 3a bd 06 f8 71 bd a6 48 5a 3d b4 d3 8e 3c
       -0.045472786 -0.059074424 0.05329194 0.017434932
000100 e6 4f 12 3d 88 43 e4 3c b3 39 82 3d 44 87 d6 3c
       0.03572073 0.027864233 0.063586615 0.026187547
000110 80 4e c6 bc 38 d7 01 3d b0 e4 fe 3b e8 2a 94 bc
       -0.024207354 0.03169939 0.0077787265 -0.018086866
000120 8c 5e 4e bd 94 96 bd bc 94 b1 7a bd 80 3a e5 bb
       -0.050383136 -0.02314309 -0.061204508 -0.006995499
000130 04 8a 71 bc e0 12 f8 3b 89 2c 31 bd 9e c4 89 bd
       -0.014742378 0.0075706095 -0.043255363 -0.06726955
000140 0a 2a 28 3d a0 a5 09 3b e8 e3 1e 3d 6a a2 41 bd
       0.041055717 0.0021003261 0.038791567 -0.04727403
000150 6a 2f 37 bd 37 fc 8c 3d 0a 4d 7a 3d 87 cd 5b bd
       -0.044722952 0.06884044 0.061108626 -0.053662803
000160 91 8a 81 3d ba e0 0c 3d ac fd 42 bc b0 46 94 3b
       0.063252576 0.034394003 -0.0119013 0.004525028
000170 82 03 0f bd 6a 6c 6f bd 00 02 09 3b 18 bf 34 3d
       -0.034915455 -0.058453 0.0020905733 0.044127554
000180 74 67 7d bd b4 ef f4 3c a8 d0 c7 bc 3b a6 23 bd
       -0.06186624 0.029899456 -0.024391487 -0.03995345
000190 a3 86 8b 3d fe 54 7e 3d 48 a9 29 3d 34 80 3e bd
       0.06812789 0.062092774 0.041421205 -0.046508983
0001a0 03 43 8f 3d da a5 45 3d 48 c8 c8 bc f1 68 4f bd
       0.06995203 0.04825387 -0.024509564 -0.05063719
0001b0 0c 86 53 bd 2a 18 68 3d de c6 a0 bc 00 36 ba 3c
       -0.05164151 0.05666367 -0.019626077 0.022730827
0001c0 28 94 43 3c b0 30 92 bc ac 65 93 3c 28 14 be bc
       0.011937179 -0.017845482 0.017992817 -0.02320297
0001d0 e4 ba c2 bc 93 50 87 bd 86 5a 82 bc 03 7c 82 3d
       -0.023770757 -0.06607165 -0.015912306 0.063713096
0001e0 db 83 06 bd f5 78 72 bd d0 bd 19 3c 5a 3e 7d 3d
       -0.03284059 -0.059197385 0.009383634 0.06182704
0001f0 5c 3e 10 bc 3a c3 1e bd 00 1e a8 3b b4 6c 78 bd
       -0.00880393 -0.0387604 0.0051305294 -0.060650542
000200 5e d2 70 3d 2f 1d 81 3d e3 2e 07 bd 14 85 94 3c
       0.05879437 0.063043945 -0.0330037 0.018129863
000210 00 85 cc ba f2 eb 15 3d 04 2d 0d 3d e8 95 39 3d
       -0.0015603602 0.036601968 0.03446676 0.045308977
000220 00 06 12 b9 fc 5b 89 3c c0 b4 7e bd 32 33 2f bd
       -0.0001392588 0.016767494 -0.062184095 -0.042773433
000230 44 c0 34 bd 0e d6 57 3d 2a c3 52 3d b6 4f 00 bd
       -0.04412867 0.052694373 0.051455654 -0.03132602
000240 7c 4e 35 bd 80 53 ca ba c4 61 35 3d b9 a7 80 3d
       -0.0442643 -0.0015436262 0.04428269 0.062819906
000250 94 a2 05 3d a8 b6 00 3c ee 8e 73 3d 27 78 90 bd
       0.03262575 0.007856049 0.05946248 -0.07054167
000260 08 19 cb 3c 80 36 34 3c 3a 73 31 bd 1c 00 c9 3c
       0.02479221 0.010999322 -0.04332278 0.024536185
000270 80 0b d0 bc 20 89 65 bd da 35 3f bd d4 66 d8 3c
       -0.025396109 -0.056038976 -0.046682216 0.02641622
000280 78 e5 09 bd de eb 8e bd 80 9f 6c bc 50 b8 dd bb
       -0.033666104 -0.06978582 -0.014442325 -0.0067663565
000290 b5 ec 8c 3d 2d 2d 0e bd ee 30 6d 3d 60 41 c3 3c
       0.06881086 -0.03471105 0.05790799 0.023834884
0002a0 7b 42 68 bd 73 cc 05 bd e0 cc 80 bb 38 e0 e2 3c
       -0.056704026 -0.03266568 -0.003930673 0.027694806
0002b0 40 98 b0 bb 18 30 63 bc a8 00 2f bc b0 2e 00 3d
       -0.0053892434 -0.013866447 -0.010681309 0.031294525
0002c0 f0 ed c7 3b 12 1f e2 bc 80 22 99 bb 10 10 f9 3c
       0.0061013624 -0.027602706 -0.004673302 0.030403167
0002d0 00 57 b5 bb b8 47 5d 3c 32 92 66 3d aa 2d 49 bd
       -0.005534053 0.013505869 0.056291766 -0.049115814
0002e0 f6 69 19 3d 6e ab 6c 3d 8a d1 0d 3d 00 a9 ca 3c
       0.037454568 0.057780676 0.03462366 0.024738789
0002f0 de e0 7d bd 30 04 f3 3b ef 30 87 3d 06 91 52 3d
       -0.06198203 0.0074162707 0.0660113 0.051407836
000300 59 1e 89 3d c0 58 fa ba 00 72 d9 bb 42 7c e8 bc
       0.066952415 -0.0019099936 -0.0066359043 -0.028379563
000310 92 4a 28 bd 18 3b 43 bd e0 56 3d 3c 82 3d 6e 3d
       -0.04108674 -0.047663778 0.011556357 0.058164127
000320 90 d0 b3 bb e0 96 06 bd 20 8d a4 3c 30 a1 e9 bb
       -0.005487509 -0.03285873 0.020086825 -0.0071298108
000330 be 63 6e 3d 28 29 12 3d ba c5 87 bd 6d f5 8e 3d
       0.05820059 0.03568378 -0.0662951 0.06980405
000340 1b 1c 70 bd d0 1f 93 bc a3 4d 82 3d 40 92 df bc
       -0.058620553 -0.017959505 0.06362464 -0.027291417
000350 7c a1 8f bc c5 55 85 3d 3e f7 35 bd b9 ef 8e 3d
       -0.017533056 0.065105 -0.04442524 0.06979317
000360 10 7c 6a bc 28 f1 55 3c d4 be 54 3d 78 22 eb 3c
       -0.014311805 0.013057984 0.0519398 0.02870296
000370 9c 5f bc 3c 9c c9 28 3d 30 89 ed bb f0 da a9 bb
       0.022994809 0.041207895 -0.00724902 -0.00518357
000380 3c 43 a8 3c 21 6d 32 bd 70 88 32 3d 3a b6 04 3d
       0.020539872 -0.043561105 0.04358715 0.032400347
000390 40 fc 4d bb 5b b5 82 3d 98 c0 21 bc 26 11 18 3d
       -0.003143087 0.06382247 -0.009872578 0.03712573
0003a0 8c ae 4d 3d c0 bc ab 3c c8 bc 86 3c 20 cf f3 3b
       0.05021529 0.020964026 0.01644744 0.0074404627
0003b0 0d 6e 81 3d 66 50 b0 bc 4b 6c 7b bd c0 28 1e 3c
       0.06319819 -0.021522712 -0.061382573 0.00965327
0003c0 dd 5d 84 3d 7a e2 7a bd de 86 c7 bc 66 cd 79 3d
       0.064632155 -0.06125114 -0.024356302 0.0609869
0003d0 ad 7d 47 bd 54 43 84 bd 84 65 86 bc e4 3e 8e bd
       -0.04870384 -0.06458154 -0.016405828 -0.06945589
0003e0 60 ed 43 bd a4 03 e2 3c 4e b1 75 3d 3c c3 21 bd
       -0.0478338 0.027589627 0.059983544 -0.03949283
0003f0 54 b2 54 3d e8 fe ed 3c 9e cb 4e bd 9e 64 50 3d
       0.05192788 0.029052213 -0.050487153 0.050877206

fc4.bias f4 [7]
000000 1c 41 20 3d c2 f4 74 bd 06 5d c5 bc 00 a6 86 bb
       0.039124593 -0.05980373 -0.024092209 -0.004109144
000010 b4 fd ac 3c a0 52 e6 bb b0 20 f9 3c
       0.021117069 -0.0070288926 0.030411094
